…
, elastic_lambda=5e-08, l1_ratio=0.5, no_norm=False, adp=False, SLT_Bonder=False, SLTAtom=True, SLTBond=True, SLTRoot=False, SLTAtom_ini='xor16_atom', SLTBond_ini='xor16_bond', SLTRoot_ini='default', dense_for_last_layer=True, local_pruning=False, local_sparsity_list=None, inference_time=False, sparsity_profiling=False, nm_decay=0.0001, num_feats=9, num_classes=2)
GCN_graph_UGTs(
  (convs): ModuleList(
    (0): Graphlevel_GCNConv(64, 64)
    (1): Graphlevel_GCNConv(64, 64)
    (2): Graphlevel_GCNConv(64, 64)
  )
  (atom_encoder): SLT_AtomEncoder(
    (atom_embedding_list): ModuleList(
      (0): Embedding(119, 64)
      (1): Embedding(5, 64)
      (2): Embedding(12, 64)
      (3): Embedding(12, 64)
      (4): Embedding(10, 64)
      (5): Embedding(6, 64)
      (6): Embedding(6, 64)
      (7): Embedding(2, 64)
      (8): Embedding(2, 64)
    )
    (weight_scores_list): ParameterList(
        (0): Parameter containing: [torch.float32 of size 1x64 (GPU 0)]
        (1): Parameter containing: [torch.float32 of size 1x64 (GPU 0)]
        (2): Parameter containing: [torch.float32 of size 1x64 (GPU 0)]
        (3): Parameter containing: [torch.float32 of size 1x64 (GPU 0)]
        (4): Parameter containing: [torch.float32 of size 1x64 (GPU 0)]
        (5): Parameter containing: [torch.float32 of size 1x64 (GPU 0)]
        (6): Parameter containing: [torch.float32 of size 1x64 (GPU 0)]
        (7): Parameter containing: [torch.float32 of size 1x64 (GPU 0)]
        (8): Parameter containing: [torch.float32 of size 1x64 (GPU 0)]
    )
  )
  (batch_norms): ModuleList(
    (0): BatchNorm1d(64, eps=1e-05, momentum=0.1, affine=True, track_running_stats=True)
    (1): BatchNorm1d(64, eps=1e-05, momentum=0.1, affine=True, track_running_stats=True)
    (2): BatchNorm1d(64, eps=1e-05, momentum=0.1, affine=True, track_running_stats=True)
  )
  (graph_pred_linear): Linear(in_features=64, out_features=1, bias=True)
)
Name: convs.0.lin.weight, Shape: torch.Size([64, 64]), Requires Grad: False
Name: convs.0.lin.weight_score, Shape: torch.Size([64, 64]), Requires Grad: True
Name: convs.0.bond_encoder.bond_embedding_list.0.weight, Shape: torch.Size([5, 64]), Requires Grad: False
Name: convs.0.bond_encoder.bond_embedding_list.1.weight, Shape: torch.Size([6, 64]), Requires Grad: False
…
